Using TensorFlow backend.
Training data shape :  (2400, 224, 224) (2400,)
Testing data shape :  (600, 224, 224) (600,)
Total number of outputs :  3
Output classes :  [0. 1. 2.]

Colocations handled automatically by placer.
Model: "sequential_1"
_________________________________________________________________
Layer (type)                 Output Shape              Param #
=================================================================
conv2d_1 (Conv2D)            (None, 224, 224, 32)      832
_________________________________________________________________
leaky_re_lu_1 (LeakyReLU)    (None, 224, 224, 32)      0
_________________________________________________________________
max_pooling2d_1 (MaxPooling2 (None, 112, 112, 32)      0
_________________________________________________________________
dropout_1 (Dropout)          (None, 112, 112, 32)      0
_________________________________________________________________
conv2d_2 (Conv2D)            (None, 112, 112, 64)      18496
_________________________________________________________________
leaky_re_lu_2 (LeakyReLU)    (None, 112, 112, 64)      0
_________________________________________________________________
max_pooling2d_2 (MaxPooling2 (None, 56, 56, 64)        0
_________________________________________________________________
dropout_2 (Dropout)          (None, 56, 56, 64)        0
_________________________________________________________________
conv2d_3 (Conv2D)            (None, 56, 56, 128)       73856
_________________________________________________________________
leaky_re_lu_3 (LeakyReLU)    (None, 56, 56, 128)       0
_________________________________________________________________
max_pooling2d_3 (MaxPooling2 (None, 28, 28, 128)       0
_________________________________________________________________
dropout_3 (Dropout)          (None, 28, 28, 128)       0
_________________________________________________________________
flatten_1 (Flatten)          (None, 100352)            0
_________________________________________________________________
dense_1 (Dense)              (None, 128)               12845184
_________________________________________________________________
leaky_re_lu_4 (LeakyReLU)    (None, 128)               0
_________________________________________________________________
dropout_4 (Dropout)          (None, 128)               0
_________________________________________________________________
dense_2 (Dense)              (None, 3)                 387
=================================================================
Total params: 12,938,755
Trainable params: 12,938,755
Non-trainable params: 0
_________________________________________________________________

Train on 2160 samples, validate on 240 samples
Epoch 1/20
2160/2160 [==============================] - 140s 65ms/step - loss: 2.1218 - accuracy: 0.3403 - val_loss: 1.1038 - val_accuracy: 0.3375
…
